examples/bandwidth/DNN/checkpoint2.pt (torch, 16799 bytes, 4 tensors)

fc1.weight f4 [128, 22]
00000000: 22f3 3fbd cf7d a63e 7b30 863e 79a7 803f
00000010: 879b 95bd bcf2 1f3f 88c9 023f d680 8a3e
00000020: b09c a1be c4ea cc3f e44b 933e 7bf7 76bc
00000030: 1fcc 78bf ecd7 61bf c3a8 43bf c224 413e
00000040: a282 adbf 86bf 7ebd 4a4f 7e3d 2877 a23f
00000050: 3526 d1bf c3d9 42bf ca5b f33c 0f48 25bf
00000060: c1dd cc3c 7bf9 4bbf a8d7 203f 629e 90bd
00000070: bb3d 143d fa15 ed3e 0890 77bf 7214 4b3d
00000080: a919 983e dfb2 de3d 4378 cd3e ab62 20be
00000090: 16e8 5f3f 11a8 6d3e b26b 0a3f 69a9 84be
000000a0: 3781 c33e b620 b7bf 061c e63c 6785 9b3e
000000b0: 14bd dd3d 4bce aabd 8e7f 16bf 4661 a1be
000000c0: 03fd b03c 0e85 1c3f da60 8e3d 6d2d 27bf
000000d0: 3c2a 22bf 9254 a0be cc8b 733f db8d 1dbf
000000e0: 803b 823f 95c2 29bf 8689 573f f02a 88be
000000f0: f0de 893f de30 293d 3637 f73e f943 43bf
00000100: 1edb a3be 2db8 c5be 385d 443e 9ca1 cebc
00000110: a739 853e 4482 6dbf ec90 50bf 6346 e13e
00000120: 1edc 12be a676 04be 7136 5dbe c0f2 bb3e
00000130: 7bd9 0b3e 392a 15be 541e de3e 7294 52bf
00000140: 89b8 183f 767d d6bc 2f4e 1abe 4021 34bf
00000150: 8c46 48bf 4e52 8cbd 1c57 d9bd 1f19 0b3d
00000160: e621 023e 0e6a 143e 6c51 1ebe 071b e9bd
00000170: b2e7 473e ba55 93bd 56cb 9abd 2d3e 53be
00000180: 430c fabd 6825 5a3d 0888 e6bc 4079 1ebe
00000190: 40df a33b f020 15be 4938 39be 4970 f0bd
000001a0: fb12 3fbe d602 0bbe 6e3b 5a3e 58f0 243d
000001b0: a88d 863d 109f 4bbe 9f62 0fbe 0537 8fbf
000001c0: 47c9 753e 62dc a1be 3e64 a4bd f497 0abf
000001d0: 00e2 1a3a c2f5 0f3e 7536 4a3e 8f86 f03e
000001e0: 9cf3 5fbf d3bb febd 59dd 10bd 3c27 6dbf
000001f0: 46a3 6fbe 73ee 71bd 25c4 3e3f d972 0b3d
00000200: 6936 48bf 1dd9 ac3f c91f 88bf 7caa aebe
00000210: 2399 2c3e e555 8dbf d20a 1b3f 1584 4dbd
00000220: 50fa 5d3d ca12 663f b683 e4be 741d 3bbf
00000230: 4dc6 49bf dcff 38bf 6c3a 943f d916 073e
00000240: fd93 993f 9469 1bbf d5f2 29bf 1c01 ee3e
00000250: a912 863d eb9f eabe ce64 a13f 9a5c 99be
00000260: 2581 b13e 12ac 81be 1ce3 8d3d da79 37be
00000270: 0ec8 613f 9224 4fbe d931 153f 9c03 36bf
00000280: 5c4b b73d df77 17bf 8908 65bf eb8d 043f
00000290: 6b49 c03e 7494 f1bd 8861 ae3d e294 0abf
000002a0: 51b6 c63d fcd7 13be 42e7 6cbe 3e26 5fbf
000002b0: 8c3b 2fbf 7110 de3e 221c 853d c0c1 28bf
000002c0: f88b 4a3d 6d83 433f 308d b2bc 6b36 bfbe
000002d0: c569 473f 0e83 523f 598c 58bd 6b61 4ebf
000002e0: fb6c d8be c5f8 a6bf df04 c8bc 1381 0fbf
000002f0: e543 753e 3a91 cc3e 3e56 57bf 9c77 913c
00000300: a120 8e3e e63f d5be a7af 043f 8b9e 143f
00000310: 11d2 a8bf d62f b7be 1cb1 373e 906f 2a3f
00000320: 9c70 a03c 93cc 31bf 4686 dabf 4ac8 27bf
00000330: c28d 3abe e796 3c3e 31a6 373e ea5d 4abe
00000340: 3a06 bdbf 5a70 063e 7bed 983e 258f 893f
00000350: a765 2b3f 925e 18be e232 4c3f 91ec 483f
00000360: 2436 2abf 15ee 8ebe ae5f e6be c82d 223e
00000370: e72e 59be 250f 5bbe 84b5 e23e ae78 20bf
00000380: 80c7 a7bf 4e47 383f 5043 34be 284e 6abf
00000390: 476e 2c3f d297 d53f f9d6 3d3f 20ea a9bd
000003a0: 6c71 0ebf 0420 233f a95c 75bf 8745 39bf
000003b0: bc97 a2be c262 a6be 618c 22bf b4fc 42bf
000003c0: 4161 2fbe 8c29 c0be feae f9bd 8088 d03f
000003d0: b777 51bf 6d47 493e d83e 73bf a066 6fbe
000003e0: 69b0 883e 17b3 ac3e ac7f f4be c95e bdbe
000003f0: bcb0 9c3f 07f0 94be 19e7 9ebe 40b1 cabd
-0.04686273 0.3251786 0.26208863 1.0051109 -0.07305055 0.6247976 0.5108876 0.2705142
-0.31564856 1.6009145 0.28768837 -0.015073652 -0.97186464 -0.88220096 -0.76429385 0.18861678
-1.3555491 -0.06219437 0.062087335 1.2692614 -1.6339785 -0.7611353 0.029706854 -0.6456308
0.025008084 -0.7967755 0.62829065 -0.07061459 0.036191683 0.4630583 -0.9670415 0.049580045
0.29707077 0.10873961 0.40130815 -0.15662639 0.8746351 0.23208643 0.5407058 -0.259105
0.3818452 -1.4306858 0.028089534 0.30375215 0.108270794 -0.083401285 -0.58788383 -0.31519526
0.02160502 0.61140525 0.06952067 -0.6530369 -0.63345695 -0.31314522 0.9513519 -0.6154458
1.0174408 -0.66312534 0.8419422 -0.2659526 1.077116 0.04130637 0.4828431 -0.76275593
-0.3200311 -0.38617077 0.19176185 -0.025223546 0.26020548 -0.92776895 -0.81471133 0.43999013
-0.1434178 -0.12935886 -0.21602799 0.3670864 0.13657181 -0.14566888 0.43382514 -0.8225776
0.5965658 -0.026182871 -0.15068887 -0.70363235 -0.78232646 -0.06851636 -0.10612318 0.033959504
0.12708244 0.14493582 -0.15460747 -0.11382108 0.19521978 -0.071940854 -0.075583145 -0.20629187
-0.1220937 0.05325833 -0.028141037 -0.1547594 0.0050009787 -0.14563346 -0.18087877 -0.11740167
-0.18659584 -0.135753 0.21311733 0.040268272 0.065699875 -0.19884896 -0.14002465 -1.1188666
0.24002562 -0.3161345 -0.08026932 -0.5413811 0.00059083104 0.14058593 0.19747336 0.4697766
-0.87481093 -0.124381684 -0.035367344 -0.9263799 -0.23402128 -0.059065294 0.7451804 0.034045074
-0.78208023 1.3503758 -1.06347 -0.34114444 0.16855292 -1.1041838 0.60563385 -0.05017479
0.054193795 0.8987242 -0.44631737 -0.73091817 -0.7881821 -0.7226541 1.1580329 0.1319231
1.1998287 -0.60707974 -0.6638616 0.4648522 0.06546528 -0.45825133 1.2608888 -0.29953462
0.34668842 -0.25326592 0.06928083 -0.17917576 0.88195884 -0.20228794 0.58279186 -0.7109926
0.089499205 -0.59167284 -0.8946615 0.5177905 0.37556013 -0.11795893 0.08514696 -0.5413343
0.09702743 -0.1443786 -0.23135093 -0.8716773 -0.68450236 0.4337192 0.064995065 -0.6592064
0.04944989 0.76372415 -0.02179584 -0.37346205 0.77895766 0.82231224 -0.05286822 -0.806174
-0.42270645 -1.3044668 -0.024416385 -0.56056327 0.23951681 0.3995455 -0.8411597 0.01775723
0.2775927 -0.41650313 0.51830524 0.5805442 -1.3189107 -0.35778683 0.17938656 0.6657648
0.019584946 -0.6945278 -1.7072227 -0.6553999 -0.18218139 0.1841694 0.1793449 -0.19762388
-1.4767525 0.13128796 0.29868683 1.0746809 0.66951984 -0.14879826 0.7976514 0.7848597
-0.6648886 -0.27916017 -0.44994873 0.15837777 -0.21209298 -0.21392496 0.4427911 -0.6268414
-1.3107758 0.719838 -0.17603803 -0.91525507 0.6735577 1.6686957 0.7415615 -0.08296609
-0.5564182 0.63720727 -0.95844513 -0.72371715 -0.3175639 -0.3249722 -0.6349545 -0.76166844
-0.17126943 -0.37531698 -0.1219158 1.6291656 -0.81823295 0.19656153 -0.95017767 -0.23378992
0.2669709 0.33730385 -0.47753656 -0.36986378 1.2241435 -0.29089376 -0.3103569 -0.09897089

fc1.bias f4 [128]
00000000: f8a4 873e 49f6 963e b568 8c3e 2dac d13d
00000010: e7e8 41be 3af3 443f 7deb 943f 1c94 b13f
00000020: 97c1 aa3f 549c 5fbe 5b72 013f ae82 80bc
00000030: 0211 72bf c09b 0140 feae 4c3f 25cf 073b
00000040: a883 213e 887d bfbe f060 1dbe 0af7 1c3f
00000050: 6dcb 893f ac4d 32bd bd5f cc3f 11d9 593e
00000060: e085 19bf 187b 2abf b29a 883f 557a 01bf
00000070: 40ed fa3c 1fc5 213f 05ee b7be 70e6 743f
00000080: 690d 3bbe c1d6 4bbe a0b3 0740 0d07 efbd
00000090: 6bcf fd3e 4d69 2bbe 4176 813c 95b0 4d3f
000000a0: d3ee 92be 8da2 50bf dbff 7d3f 9457 8abe
000000b0: 0b08 b53d ac1b 153f 2d6a 9e3f 8e93 e8bd
000000c0: 69ae 51be bc9e e5bf db1a abbf 94f9 923f
000000d0: 7b51 743f 6db8 2a3f 723d dbbe 306d e0be
000000e0: ac52 81bb a954 81bf e443 c8bc 218b 4e3f
000000f0: 92b6 4fbf c0d0 f6bd 261a d5be 728f 0abf
00000100: 1a96 c5bf 543d 4fbf 7e18 89bf 35e1 7cbf
00000110: 97dc 08bf faff 203f 0aa1 3d3e 03e6 77bd
00000120: 4979 1fbe f95b 993e a256 9d3d c832 d43e
00000130: 11f2 2fbf 5f12 3f3f e634 bdbf ae9a 14be
00000140: fed2 ebbe f138 3a3b d93b d33d 6d2c d6be
00000150: 994f 643f 6efb b4bd 9f55 003e ef65 d63e
00000160: 77c7 943e 6083 613f ceaf 9abd 224c c5be
00000170: 3d24 9fbe 5aaa 2bbe cd27 263f 0ad0 9d3f
00000180: a0b8 86bf badd 473e bfa3 7c3f 9bf6 52bf
00000190: 50f1 3e3f d2a0 b23e 8365 713f 01ec a33f
000001a0: 29e9 3bbe 1458 c9bf 0c7b 1e3d 25e6 b33c
000001b0: aa03 263e d094 6a3e 61c1 883e c143 10bf
000001c0: 3a88 a3bf c07f 093c 6236 8d3f d70a b6bd
000001d0: e5e1 29be 87ed 4f3e 3d0d b73d 4afc a7be
000001e0: 9d21 16be 8ca9 5fbd 0d8b 47be 76f4 b13f
000001f0: cd78 573f 84b6 cdb9 54b2 09bf a10b 943f
0.2649305 0.29484776 0.27423635 0.10237918 -0.18936501 0.76933634 1.1634365 1.3873324
1.3340329 -0.21836978 0.5056512 -0.015687313 -0.945572 2.0251312 0.79954517 0.0020722833
0.15772879 -0.3740046 -0.1536901 0.6131445 1.0765206 -0.043531105 1.5966717 0.2127421
-0.599699 -0.66594076 1.0672209 -0.5057729 0.030630708 0.6319141 -0.35923782 0.9566412
-0.18266834 -0.19906141 2.1203384 -0.11671267 0.4957231 -0.16739388 0.015803458 0.8034757
-0.28697833 -0.8149803 0.9921853 -0.27019942 0.08839425 0.5824535 1.2376152 -0.11356269
-0.20476688 -1.7939067 -1.3367571 1.1482415 0.9543683 0.6668766 -0.42820317 -0.43833303
-0.003946623 -1.0103961 -0.024446435 0.80681044 -0.81137955 -0.12051535 -0.41621512 -0.5412513
-1.5436432 -0.80952954 -1.07106 -0.9878114 -0.53461593 0.6289059 0.18518463 -0.06052209
-0.1557361 0.29952982 0.076825395 0.41444993 -0.6872874 0.7463741 -1.4781768 -0.1451213
-0.46059412 0.0028415287 0.103141494 -0.4183077 0.89183956 -0.08837019 0.12532662 0.41874644
0.2905843 0.8809109 -0.07553063 -0.38534647 -0.31082335 -0.16764203 0.6490448 1.2329113
-1.0525093 0.19518176 0.98687357 -0.8240754 0.74586964 0.3488832 0.9429552 1.2806398
-0.18350662 -1.5730004 0.038691565 0.021960327 0.16212335 0.2290833 0.26710036 -0.56353384
-1.2775948 0.008392274 1.1032221 -0.08888786 -0.16590078 0.20305453 0.08938072 -0.3280967
-0.1466126 -0.054605052 -0.19486637 1.3902729 0.841687 -0.00039236632 -0.5378773 1.1566049

fc2.weight f4 [7, 128]
00000000: 2b46 793f 4ff7 b4be a197 733f 282b a7bf
00000010: ce6b 5f3d 99b9 b53e 2ad5 d4bd 1094 3e3e
00000020: 882a 72bc 94b8 1abf a792 683f 4c84 51bf
00000030: 5a31 abbf 1a5e 913d abb1 d13e 999f e53c
00000040: bf50 693e ea04 debd dce1 7ebd 4088 4cbf
00000050: 5f8b d8be 74bd 4cbf 47c1 8a3e 7d30 6e3e
00000060: c523 e93e aa59 8dbe 09f5 abbd 6966 f63e
00000070: 96c6 453a a6ca 1dbe 1fbe 593f 6c5c 763f
00000080: 4e82 20be 33bf 15bf a1cd 323f a7c4 c1be
00000090: 3721 fa3e 0a5c 383d a8bb 9dbf 5581 d23e
000000a0: 1c4d 643f d350 a8be 78d5 ccbd aaf8 d73e
000000b0: 204a 0d3f 7be4 c4be 1775 b4be f76e 87bd
000000c0: c849 71bf da2d e7be aa33 c0bf 6af4 16bf
000000d0: 8f2a e03e 8652 49bf 7611 c33f a766 5cbf
000000e0: 1ebd 2c3f b5e2 20be 6034 aabf 14b9 a5bd
000000f0: ba4d 913e 09a4 81bd e74d 31bf ea7b 32bd
00000100: 78db 2bbf 38f3 e6bc c7b6 ea3f a42d 123f
00000110: 024c 9dbf 0ce1 a63f c8ff 813f 764f 523f
00000120: 247d c3be 1485 ce3e e0d3 30be af2e 9f3e
00000130: ba1e 4e3e 723e 0bbe 2651 6b3e 203b 82bf
00000140: 7c03 323f 8a5e 153c a92b e33e 03d0 053f
00000150: 22a3 7dbf 0754 e8be b37a a03f b53c 33be
00000160: e926 08bf 1e3d c73d 29b9 01bd 612a debe
00000170: 786c 1dbf dc3a 453f 2f4a 69be 5694 843e
00000180: c414 903d dc88 523f a1dd 103f 36bd 3c3f
00000190: 8ae3 c0bf 53a5 953f 0a16 4e3d c8c0 aebe
000001a0: 30fa 5fbf d6e0 103f be13 8cbf 62be 863f
000001b0: d0d3 2b3d 40ba 553f 89cd b0be 12d5 03be
000001c0: abf3 9e3d fb85 613e f3f1 e6be b242 1b3d
000001d0: 914d 91be e649 793e 227e 463f d457 b23f
000001e0: a36f 853d 68ef 75be a52a 57bd 2ac7 c63e
000001f0: 4965 1dbe 9cd5 4dbf 6c08 1fbf bddd d6bf
00000200: 30d6 f83d b6be 6cbf 4fd5 05be d489 443f
00000210: e08a 373b 766a 24bf f5f3 66bf cd05 b6bf
00000220: 2505 903f 20b2 edbd 8d4e a2bc 05ca d23f
00000230: a9da 5e3f 8627 343f dd4f 4bbe a1fd 403c
00000240: 5097 75be 1319 f33e b6ee ed3d e430 c83f
00000250: c629 ac3e d320 be3f db9f cdbf 658b 48bf
00000260: 0cc1 673e a16c 1b3d 35f0 97bf 145d a1bf
00000270: 404c 5c3c 84cf 7ebe fbc7 2a3f 0bd5 10bf
00000280: 5c04 543f e148 443d 242a c2bf 635b 643f
00000290: e223 033f 83d0 2e3d 6b98 873f 9445 aebd
000002a0: 3c4b 863e 8d12 823f 2b52 463e 1a1e 24bf
000002b0: bd2e f6be 0431 3ebf 1d18 773f 520d 2ebc
000002c0: 7275 993f 5c7a a9bf b3e8 b73f 35d3 fd3d
000002d0: c0f1 24bf 3ccd ae3f 5288 eebf d222 f13e
000002e0: 19a5 bb3f 0686 7a3f de9b a23f e78f 7ebf
000002f0: 0824 9e3f 2c90 febc 02db 1abe 6942 c9bf
00000300: 2fc5 28be e0f2 153c 4f0e 05c0 5502 01c0
00000310: d760 e43e bb20 67bf 3037 45bd 7ab1 cbbf
00000320: a234 e73f 589d 77bf 825c 42be 465f 48be
00000330: 19b8 353e a06b 773f 5c85 08bf 206a 1a3f
00000340: 0971 ea3e 15af 053d bdf5 693f 224c 34bf
00000350: a986 053f 01f3 8b3f 76dd 82bf 52f1 f23f
00000360: f966 673d 61ab d43f 8144 6dbd 3462 f4bf
00000370: 86e8 833f ced9 c1bf 768b 983e cc97 1a3f
00000380: 4cf2 9abf eedd bbbe 5cd8 a2bf ae6a b93d
00000390: c339 913f 1ecf ebbf ba52 943d f473 cb3f
000003a0: 94bf 5b3e d2f5 50bf db78 7a3f 1087 cd3e
000003b0: bf9d 5bbd d9af 033f 95fd 1140 ead3 43bf
000003c0: 242f 77bf 0829 a2bf 1962 abbe 48a9 633d
000003d0: 3faa a2bf 0561 903e 0679 78bf 863e c5bf
000003e0: 3923 9b3d a778 bf3e e778 953d 6c56 753e
000003f0: bdc8 7dbf 1ffe e63f c823 10be 61f6 d33f
0.9737269 -0.3534493 0.9515324 -1.3060045 0.05454617 0.35493162 -0.1039222 0.18611169
-0.014780648 -0.60437894 0.90848774 -0.81842494 -1.3374436 0.070980266 0.40955862 0.028030204
0.22784708 -0.10840781 -0.062227115 -0.798954 -0.42293832 -0.7997658 0.27100584 0.23260684
0.45535102 -0.2760747 -0.08396346 0.48125008 0.0007544545 -0.15409335 0.85055727 0.96234775
-0.15674707 -0.5849487 0.69845015 -0.37845346 0.48853466 0.04500965 -1.2322893 0.41114298
0.8918016 -0.32874164 -0.100016534 0.42181903 0.5519123 -0.38455567 -0.35245582 -0.06612962
-0.94253206 -0.4515217 -1.5015767 -0.58966696 0.4378247 -0.78641546 1.5239704 -0.86094135
0.6747607 -0.15711482 -1.3297234 -0.080919415 0.28379613 -0.06330115 -0.69259495 -0.043575205
-0.6713176 -0.028192148 1.8337029 0.5710089 -1.2288821 1.3037429 1.0156183 0.821525
-0.38181412 0.40335906 -0.17268324 0.31090304 0.20128909 -0.1359804 0.22980174 -1.0174294
0.69536567 0.009116778 0.44369248 0.52270526 -0.99077046 -0.45376608 1.2537445 -0.17503627
-0.5318437 0.09728454 -0.031670723 -0.43391708 -0.61493635 0.7704294 -0.22782205 0.2589442
0.07035211 0.8224008 0.5658818 0.7372621 -1.506944 1.1691078 0.050313987 -0.34131455
-0.8749113 0.5659307 -1.0943525 1.052685 0.041950047 0.8348732 -0.3453181 -0.12874249
0.0776132 0.22023766 -0.45106468 0.037905402 -0.2837949 0.24344596 0.77536213 1.3933053
0.06515434 -0.24017107 -0.052530903 0.38823825 -0.15370668 -0.8040407 -0.62122226 -1.6786419
0.12150228 -0.924785 -0.13069652 0.7677281 0.002800636 -0.64224946 -0.90216 -1.422052
1.125157 -0.1160624 -0.019812847 1.6467901 0.870524 0.7037281 -0.19854684 0.01177922
-0.23983502 0.47480068 0.11617796 1.563992 0.3362562 1.4853767 -1.6064409 -0.783377
0.22632235 0.037945393 -1.187018 -1.260653 0.013445914 -0.24883848 0.66711396 -0.5657508
0.8281915 0.047921065 -1.516911 0.89201945 0.5122663 0.04267932 1.0593389 -0.08509365
0.26229274 1.0161911 0.19367282 -0.6410843 -0.48082533 -0.7429354 0.9652117 -0.010623293
1.1988966 -1.3240466 1.4367889 0.123938 -0.6443138 1.3656383 -1.8635352 0.47096878
1.4659759 0.97860754 1.2703817 -0.9943833 1.2354746 -0.031074606 -0.15122607 -1.5723392
-0.1648147 0.009152144 -2.0789983 -2.0157673 0.44605133 -0.9028432 -0.048148334 -1.5913537
1.8062937 -0.9672446 -0.18980601 -0.19567594 0.17746009 0.966486 -0.5332849 0.60318184
0.45789364 0.032637674 0.9139059 -0.7042867 0.521586 1.0933534 -1.0223835 1.8979895
0.056494687 1.6614801 -0.05792666 -1.9092469 1.0305336 -1.5144594 0.297939 0.60387874
-1.2105193 -0.36692756 -1.2722278 0.09053551 1.1345752 -1.8422582 0.07242341 1.5894761
0.214598 -0.8162509 0.9784066 0.40142107 -0.053617235 0.514402 2.2811024 -0.7649523
-0.96556306 -1.2668772 -0.3347328 0.05558136 -1.2708205 0.2819902 -0.9705967 -1.5409706
0.075750776 0.37396738 0.07298451 0.23958749 -0.9913443 1.8046302 -0.1407615 1.6559564

fc2.bias f4 [7]
00000000: 0744 143f f8e7 d23f 5550 f13e 16a9 ab3f
00000010: 82c4 823f c8bc 453f 5ca2 6a3f
0.579163 1.6477041 0.471316 1.3410976 1.021622 0.7724118 0.9165399
