examples/bandwidth/DNN/checkpoint.pt (torch, 16799 bytes, 4 tensors)

fc1.weight f4 [128, 22]
-0.08026952 -0.22689646 -0.024607921 0.7022709 1.0811168 -0.16692689 0.1066164 0.49339256
-0.2558221 0.3290442 -0.6730915 -0.5480281 0.5790647 -0.13706827 0.17889404 0.83979034
-0.38306716 0.9739608 -0.91389453 0.7428819 0.5706102 -0.8077916 -0.027703017 -0.2062452
0.04561643 -0.09507495 0.14212319 -0.03449159 0.1229972 -0.0076339594 0.054067582 0.47077087
-0.21895589 0.09619148 0.14248142 0.21878964 -0.20731667 -0.101959236 0.31757176 0.24495925
0.20574838 0.21118097 0.23374484 -0.04107127 0.108270794 -0.14398599 -0.547929 -0.29986003
-0.5076379 0.023050062 0.06140849 0.07427281 0.42354187 0.13870877 0.5299479 -0.15148202
-0.30106705 -0.84037733 0.45420474 -0.07342255 -0.091228336 -0.43856272 0.59349275 -0.44959432
-0.105384536 -0.041147128 0.19176185 0.108227044 0.07138774 -0.4900262 -0.21951483 0.0021616374
-0.1434178 -0.13748068 0.0477264 0.25627613 -0.0097786095 -0.14549063 0.21837765 -0.3664821
0.27265167 -0.049526628 -0.013874729 -0.47254616 -0.34899497 -0.22817314 -0.14336546 -0.023621947
0.12708244 0.14493582 -0.15460747 -0.11382108 0.19521978 -0.071940854 -0.075583145 -0.20629187
-0.1220937 0.05325833 -0.028141037 -0.1547594 0.0050009787 -0.14563346 -0.18087877 -0.11740167
-0.18659584 -0.135753 0.21311733 0.040268272 0.065699875 -0.19884896 -0.14002465 -0.1281786
0.15529607 -0.2361085 0.059990104 -0.2976428 0.00059083104 -0.08564917 0.08362144 -0.10201723
-0.4588571 -0.124381684 0.035303347 -0.35006505 0.2655741 0.024957404 0.35585493 -0.0667457
-0.327069 0.34093332 -0.29766434 -0.051187616 -0.103800766 -0.23973157 -0.118316494 -0.4696804
0.7434444 -0.49801955 0.18056887 0.315078 -0.2909221 0.0012717322 0.6077751 -0.028093504
0.1306155 -0.007927493 0.4658257 -0.17104515 0.5944975 -0.94202304 0.13251987 -0.26865926
0.503557 0.52373993 0.06928083 -0.11526616 0.20057856 0.013220337 0.12448885 -0.16598241
0.089499205 -0.031984493 -0.0844728 0.1529575 0.09325446 -0.11795893 -0.1157932 -0.037753664
0.15431605 -0.12012988 -0.1249057 -0.15715158 -0.15927689 0.11789925 0.039934985 -0.24741203
0.049510237 -0.26051286 -0.10020605 -0.4006655 -0.05593988 0.4696049 -0.48275742 -1.0085884
-0.028343111 -0.023813186 0.022906562 -0.4325305 0.30632764 1.2786155 -0.15721531 -0.49134383
0.048725717 0.036851633 0.52674776 0.8876017 -1.3105026 -0.054185823 0.12003965 0.45292982
-0.48001787 0.057681993 -0.61846995 -0.7333987 0.35918978 0.8411074 0.7440569 -0.42515242
-0.7669596 -0.3598302 -0.55511814 0.57097965 -0.11849211 -0.6153716 0.09432869 -0.09789832
-0.6836258 0.105996855 -0.41066754 0.6274689 -0.21209298 0.109790355 1.1690979 0.043344818
-0.6190789 -0.22651987 -0.17315714 -0.39857826 -0.060671933 0.34166443 0.78342485 0.02554216
0.027029512 0.026161555 -0.13679008 0.3267991 -0.24213995 -1.0107855 -0.11111726 -0.13771625
-0.039472546 -0.47685435 -0.15331562 0.05245153 -0.5468187 0.2960515 -1.0140047 -1.093735
-0.18607163 -0.59187335 -0.34937435 -0.7458141 0.19976243 -0.30823186 0.52294785 -0.7816787
00000000: 5964 a4bd 8c57 68be 8d96 c9bc 07c8 333f
00000010: 0962 8a3f e2ee 2abe b359 da3d f39d fc3e
00000020: 1dfb 82be 7b78 a83e b94f 2cbf 924b 0cbf
00000030: 963d 143f a05b 0cbe 0030 373e 80fc 563f
00000040: 6121 c4be 7f55 793f fef4 69bf 822d 3e3f
00000050: 8313 123f 6ecb 4ebf 70f1 e2bc f131 53be
00000060: 4bd8 3a3d a8b6 c2bd be88 113e 0e47 0dbd
00000070: f5e5 fb3d 4b26 fabb f875 5d3d e108 f13e
00000080: f935 60be 0a00 c53d a6e6 113e 640a 603e
00000090: d24a 54be 01d0 d0bd c498 a23e 99d6 7a3e
000000a0: b4af 523e d33f 583e cf5a 6f3e 593a 28bd
000000b0: 14bd dd3d 1071 13be 1345 0cbf 4187 99be
000000c0: 8ff4 01bf 7cd3 bc3c 7887 7b3d 581c 983d
000000d0: 7bda d83e ac09 0e3e aaaa 073f 1a1e 1bbe
000000e0: 7625 9abe f822 57bf 868d e83e 905e 96bd
000000f0: ecd5 babd 4b8b e0be 24ef 173f 3a31 e6be
00000100: d9d3 d7bd e489 28bd 385d 443e 24a6 dd3d
00000110: bc33 923d b7e4 fabe 7fc8 60be 42aa 0d3b
00000120: 1edc 12be bcc7 0cbe c27c 433d a036 833e
00000130: 7636 20bc 7ffb 14be 649e 5f3e 8ba3 bbbe
00000140: 0099 8b3e 6fdc 4abd d552 63bc 92f1 f1be
00000150: 78af b2be 38a6 69be 65ce 12be d082 c1bc
00000160: e621 023e 0e6a 143e 6c51 1ebe 071b e9bd
00000170: b2e7 473e ba55 93bd 56cb 9abd 2d3e 53be
00000180: 430c fabd 6825 5a3d 0888 e6bc 4079 1ebe
00000190: 40df a33b f020 15be 4938 39be 4970 f0bd
000001a0: fb12 3fbe d602 0bbe 6e3b 5a3e 58f0 243d
000001b0: a88d 863d 109f 4bbe 9f62 0fbe 4041 03be
000001c0: ef05 1f3e 6dc6 71be 2fb8 753d a364 98be
000001d0: 00e2 1a3a d568 afbd b841 ab3d 69ee d0bd
000001e0: 51ef eabe d3bb febd 3e9a 103d ba3b b3be
000001f0: 54f9 873e 7873 cc3c 9e32 b63e f8b1 88bd
00000200: 9775 a7be d08e ae3e 7667 98be 1baa 51bd
00000210: 7f95 d4bd 317c 75be eb4f f2bd f379 f0be
00000220: 5f52 3e3f 6bfc febe 0ce7 383e e751 a13e
00000230: bef3 94be 40b0 a63a 2697 1b3f 5924 e6bc
00000240: 12c0 053e 51e2 01bc b580 ee3e 7626 2fbe
00000250: fd30 183f 6c28 71bf 4ab3 073e b58d 89be
00000260: 1de9 003f d213 063f 1ce3 8d3d aa10 ecbd
00000270: 7764 4d3e 1d9a 583c 03f4 fe3d 4bf7 29be
00000280: 5c4b b73d 2c02 03bd 1300 adbd e4a0 1c3e
00000290: 32fc be3d 7494 f1bd fc24 edbd 96a3 1abd
000002a0: 0705 1e3e a806 f6bd 8fce ffbd 58ec 20be
000002b0: 7b19 23be 2975 f13d de92 233d 9459 7dbe
000002c0: 3fcb 4a3d f161 85be d438 cdbd 0724 cdbe
000002d0: 3721 65bd 0e70 f03e fb2b f7be 6d19 81bf
000002e0: d02f e8bc df13 c3bc 8ba6 bb3c a374 ddbe
000002f0: fad6 9c3e aca9 a33f 0dfd 20be 6b91 fbbe
00000300: 9e94 473d bdf1 163d f1d8 063f dd39 633f
00000310: 8dbe a7bf f4f1 5dbd 59d7 f53d 6be6 e73e
00000320: e7c4 f5be f443 6c3d 0c54 1ebf 04c0 3bbf
00000330: b9e7 b73e d152 573f 837a 3e3f 94ad d9be
00000340: 7757 44bf aa3b b8be 391c 0ebf b92b 123f
00000350: feab f2bd fe88 1dbf 662f c13d ea7e c8bd
00000360: 1a02 2fbf e114 d93d 0443 d2be cda1 203f
00000370: e72e 59be c4d9 e03d 00a5 953f 568a 313d
00000380: f47b 1ebf d3f4 67be 1b50 31be 7312 ccbe
00000390: 2283 78bd a4ee ae3e 888e 483f cb3d d13c
000003a0: ff6c dd3c c250 d63c b312 0cbe 3652 a73e
000003b0: 89f3 77be 6b61 81bf 7291 e3bd 7d05 0dbe
000003c0: f7ad 21bd 4126 f4be c5fe 1cbe 6ad7 563d
000003d0: 4ffc 0bbf 1094 973e e8ca 81bf 82ff 8bbf
000003e0: 9089 3ebe 0385 17bf 32e1 b2be aced 3ebf
000003f0: 868e 4c3e 91d0 9dbe e9df 053f 181c 48bf

fc1.bias f4 [128]
0.20678459 -0.15224482 0.20365657 0.27986187 -0.18936501 0.005883345 -0.63182044 0.08368758
0.20236397 -0.51422775 0.80300975 -0.20979626 -0.80355424 0.92286795 0.15005231 -1.7951071e-06
-0.15399604 0.0320281 -0.16730411 0.330902 0.8675712 0.5527966 0.91737956 0.4399728
0.1877629 -0.17013653 0.40112823 -1.1641564 0.03976794 0.52331454 -0.6198515 0.6670647
-0.2854921 0.4383796 0.78418326 0.19769862 0.26518393 -0.16741109 -0.077641815 0.38062346
-0.25201133 -0.37255824 0.75781506 0.09191945 0.19962654 0.72887576 0.25088263 -0.11320073
0.7788772 0.2522899 0.26316985 0.9970567 1.4618479 0.8286611 -0.35349718 0.2080637
1.5079 -0.3435988 -0.19569314 0.7672467 0.0006074053 -0.12051535 -0.31068856 -0.21162112
-0.9477826 0.9240712 0.6019704 -0.72626346 -0.7966622 0.18606248 -0.8354894 -0.16313651
-0.012646858 0.27912578 0.0062348866 0.27371284 0.07450408 0.5713743 0.22797601 0.45455942
0.062257193 -2.9542482e-05 0.10191214 1.0667211 0.15335156 -0.32176107 -0.32009375 0.6627902
0.7398759 0.6538218 -0.07553063 0.524123 0.13780968 0.2321766 0.011153126 0.35404626
0.27596772 0.41239947 0.5288381 -0.28697303 0.55954564 0.6095997 0.3042894 0.43600798
-0.21899776 -0.21585089 -0.03449762 -0.00039870237 0.24379171 0.7417297 -0.094205044 -0.018813921
-0.2138187 0.76339877 0.4129977 -0.08887383 0.2994278 0.57918 0.3911222 -0.5233397
-0.1466126 0.5107075 -0.19486637 0.9033421 0.07272716 0.58282965 -0.09816369 0.02279849
00000000: 57bf 533e 11e6 1bbe 598b 503e 0e4a 8f3e
00000010: e7e8 41be 13c9 c03b fcbe 21bf 6564 ab3d
00000020: 8038 4f3e 6ea4 03bf 0c92 4d3f d5d4 56be
00000030: bbb5 4dbf 1341 6c3f 50a7 193e 69ef f0b5
00000040: 23b1 1dbe e62f 033d c551 2bbe fd6b a93e
00000050: 2519 5e3f 1484 0d3f 63d9 6a3f 1d44 e13e
00000060: eb44 403e 4538 2ebe ae60 cd3e 1403 95bf
00000070: b5e3 223d f1f7 053f 97ae 1ebf c1c4 2a3f
00000080: 052c 92be 4a73 e03e 3cc0 483f 8271 4a3e
00000090: 30c6 873e d06d 2bbe ac02 9fbd 14e1 c23e
000000a0: a107 81be f4bf bebe 2b00 423f 4440 bc3d
000000b0: e66a 4c3e 9a97 3a3f b073 803e c9d5 e7bd
000000c0: 7f64 473f 242c 813e 33be 863e 1c3f 7f3f
000000d0: d51d bb3f 2223 543f 95fd b4be a70e 553e
000000e0: de02 c13f 2fec afbe c863 48be 486a 443f
000000f0: 483a 1f3a c0d0 f6bd 9212 9fbe 35b3 58be
00000100: e1a1 72bf ee8f 6c3f bb1a 1a3f 67ec 39bf
00000110: 0ef2 4bbf 2a87 3e3e a2e2 55bf 420d 27be
00000120: c434 4fbc 93e9 8e3e 054e cc3b 1724 8c3e
00000130: 9895 983d 9645 123f 8b72 693e 03bc e83e
00000140: 6601 7f3d ffd1 f7b7 50b7 d03d 518a 883f
00000150: 3108 1d3e debd a4be 54e3 a3be 9eac 293f
00000160: 8268 3d3f de60 273f ceaf 9abd ed2c 063f
00000170: fb1d 0d3e b4bf 6d3e 9abb 363c 8d45 b53e
00000180: a44b 8d3e 0626 d33e ef61 073f 21ee 92be
00000190: 623e 0f3f ba0e 1c3f d2cb 9b3e 703c df3e
000001a0: f340 60be 0408 5dbe 604d 0dbd ed08 d1b9
000001b0: 89a4 793e ffe1 3d3f 93ee c0bd a71f 9abc
000001c0: 4af3 5abe 1a6e 433f 6f74 d33e 7c03 b6bd
000001d0: 9a4e 993e 2445 143f 2b41 c83e 97f9 05bf
000001e0: 9d21 16be babd 023f 0d8b 47be 6e41 673f
000001f0: faf1 943d 5334 153f 0b0a c9bd e6c3 ba3c

fc2.weight f4 [7, 128]
0.73248315 -0.28900993 -0.41987163 -0.58261037 0.05454617 0.377231 -0.6072106 0.12538116
-0.43095276 0.268961 0.66984886 -0.69975114 -0.6784247 -0.10277278 0.31097823 0.08280986
0.41000992 -0.96010953 -0.0461665 -0.004753518 -1.0067524 -1.0244114 1.1367669 0.5067181
-0.03749131 -0.9755958 -0.13746937 -0.013123557 -0.004377871 -0.71668345 -0.119718455 0.2786143
0.5799552 -0.5027127 0.52860564 -0.08799661 -0.37832585 0.045109663 0.05626365 -0.18142855
-0.48426282 -0.32972637 -0.739701 0.59790236 -0.8527272 -0.084182486 -0.061262675 -0.06675772
0.38339913 0.112759314 -0.82585686 -1.2228023 1.0484971 0.30683675 0.06783364 -0.8677256
-0.27079716 -0.3392685 0.5018838 0.48905957 -0.18069656 -0.06330115 0.08163182 0.35752216
-0.062612936 -0.01174752 0.3490757 0.25619853 -0.1946605 0.25132877 0.9254329 0.06739537
0.7501989 0.7912314 0.05999213 -0.19662288 -0.26910368 -0.012314207 1.1165022 0.5067428
0.69729793 -0.069191635 0.90912783 0.23356195 -0.016909884 -0.56790423 1.1818912 -0.34033334
-0.5802479 -0.578535 -0.031670723 0.22080685 -0.5569718 0.036368817 -0.06815966 0.0375351
0.47798517 -0.50068825 0.21641743 1.0395831 0.004760432 0.43698663 0.23344758 0.28477335
-0.9116401 0.24217771 -0.2023335 0.5764869 -0.016791245 -0.20190264 -0.7109661 0.4000842
0.1597302 0.67990065 -0.55878764 0.03792196 -0.847086 -0.98339766 0.42873242 -0.3594306
0.06515434 0.5787747 -0.052530903 -0.0069554104 -0.37447438 0.3083806 -0.50723463 -0.6394896
-0.8290423 0.38414523 1.1337786 0.24168186 0.002800636 -0.17661203 0.43549177 -0.12767355
-0.14053553 -0.65846545 -0.82343495 1.2337861 -0.24168727 -0.33865452 0.63751334 -0.015516411
1.0388538 0.70048434 0.072125256 0.37180343 -0.1077685 0.8393999 -1.1568487 -1.5533653
0.13623053 -0.5903593 -0.32107705 -0.8667295 0.013330038 -0.55220276 -0.4666076 0.6936449
-0.1778152 0.17365858 -0.15050085 0.14237852 0.33324468 0.04270102 -0.60123134 -0.14582439
-0.14479251 0.547773 -0.14988019 -0.6409244 1.7610087 -0.15051727 0.42558718 -0.010736562
0.9955261 -0.54405147 -0.08965278 -0.2790921 -0.50123715 0.4979276 -0.33008727 0.23716779
2.0914555 0.2620825 -0.42345452 -0.99120694 0.27402985 -0.031074606 0.16243514 -0.029013608
-1.7312597 -1.578616 -0.18443747 -1.930357 -0.36315164 0.23611817 1.2585081 -0.32057533
-0.334351 -1.3279291 -0.013872539 0.27147186 1.7145865 0.0916736 -0.4375358 -0.1606896
0.7406219 0.98932457 -0.18891554 -1.6910664 0.11223209 0.73391026 -0.9553256 1.7403289
0.32165137 0.48399374 -0.05792666 -1.2810744 0.7423704 -0.38931897 0.14661677 0.7895812
-1.1987737 0.23587535 -0.0014597586 -0.054126587 1.0857519 -0.06467954 0.4828927 -0.31361964
-0.37952846 -0.32130975 0.20674545 0.8884556 -0.17651975 0.6663181 2.2335474 -0.40263766
0.14880876 0.03772047 -0.5546803 0.055567402 0.24817085 0.27599636 -0.9270798 -0.6298285
0.075750776 0.37828395 0.07298451 0.67416483 -0.3374795 0.99270135 1.0633224 0.80920804
00000000: 0484 3b3f 1cf9 93be 6af9 d6be f425 15bf
00000010: ce6b 5f3d 6c24 c13e 2772 1bbf eb63 003e
00000020: d7a5 dcbe 42b5 893e 377b 2b3f e422 33bf
00000030: 3ead 2dbf 897a d2bd 8a38 9f3e 3798 a93d
00000040: d2ec d13e bdc9 75bf 1519 3dbd 66c3 9bbb
00000050: 43dd 80bf ea1f 83bf 9481 913f 47b8 013f
00000060: 7d90 19bd a5c0 79bf c5c4 0cbe 3004 57bc
00000070: 3e74 8fbb 9178 37bf f32e f5bd 89a6 8e3e
00000080: f277 143f c8b1 00bf b352 073f 9137 b4bd
00000090: edb3 c1be e9c4 383d b774 663d 68c8 39be
000000a0: 4cf1 f7be e5d1 a8be 0b5d 3dbf 2110 193f
000000b0: 544c 5abf de67 acbd 92ee 7abd 46b8 88bd
000000c0: e44c c43e 5bee e63d 5b6b 53bf c984 9cbf
000000d0: 2735 863f b519 9d3e 5dec 8a3d 4423 5ebf
000000e0: eda5 8abe 9ab4 adbe 757b 003f 0466 fa3e
000000f0: 8508 39be 09a4 81bd 952e a73d 250d b73e
00000100: 363b 80bd ac78 40bc 0dba b23e 742c 833e
00000110: 1555 47be 2aae 803e 2ce9 6c3f 9506 8a3d
00000120: 090d 403f 248e 4a3f 4fba 753d 8257 49be
00000130: f5c7 89be 87c1 49bc 8be9 8e3f e5b9 013f
00000140: 1e82 323f 58b4 8dbd 9abc 683f dd2a 6f3e
00000150: 9986 8abc 2c62 11bf 3648 973f 2c40 aebe
00000160: 208b 14bf df1a 14bf 29b9 01bd 311b 623e
00000170: b495 0ebf 78f7 143d 4b97 8bbd 68be 193d
00000180: 79ba f43e 1b2d 00bf 889c 5d3e 0f11 853f
00000190: 66fd 9b3b b6bc df3e e20c 6f3e d0cd 913e
000001a0: 3f61 69bf 6ffd 773e 8330 4fbe a594 133f
000001b0: cb8d 89bc 91bf 4ebe e001 36bf d6d7 cc3e
000001c0: 5090 233e f80d 2e3f b50c 0fbf 0f54 1b3d
000001d0: a1da 58bf f3bf 7bbf d182 db3e 4a07 b8be
000001e0: a36f 853d 942a 143f a52a 57bd 36ea e3bb
000001f0: 1bbb bfbe 10e4 9d3e 21da 01bf 97b5 23bf
00000200: 1e3c 54bf afae c43e a81f 913f 737b 773e
00000210: e08a 373b c9d9 34be c7f8 de3e dbbc 02be
00000220: 8ce8 0fbe 3191 28bf a2cc 52bf b4ec 9d3f
00000230: de7c 77be 2064 adbe 1334 233f 8b38 7ebc
00000240: 29f9 843f f152 333f 68b6 933d 055d be3e
00000250: bbb5 dcbd e9e2 563f 9e13 94bf add4 c6bf
00000260: 0480 0b3e c921 17bf 3664 a4be fce1 5dbf
00000270: 3b66 5a3c 295d 0dbf 31e7 eebe b692 313f
00000280: 3015 36be 8ed3 313e e51c 1abe adcb 113e
00000290: 0c9f aa3e 44e7 2e3d 4cea 19bf fd52 15be
000002a0: 7d44 14be da3a 0c3f 317a 19be 9f13 24bf
000002b0: bc68 e13f 3321 1abe 90e6 d93e 68e8 2fbc
000002c0: ccda 7e3f f546 0bbf e09b b7bd 29e5 8ebe
000002d0: 1451 00bf 5ef0 fe3e 3301 a9be 1ddc 723e
000002e0: 68da 0540 ad2f 863e 08cf d8be bdbf 7dbf
000002f0: a44d 8c3e 2c90 febc 6655 263e f2ad edbc
00000300: eb99 ddbf 1710 cabf 2ddd 3cbe f015 f7bf
00000310: 03ef b9be f6c8 713e cb16 a13f 7322 a4be
00000320: 0e30 abbe 95f9 a9bf a549 63bc 5cfe 8a3e
00000330: 9277 db3f 5ebf bb3d b104 e0be d18b 24be
00000340: 6699 3d3f 6044 7d3f 1373 41be dd74 d8bf
00000350: f0d9 e53d 8be1 3b3f 3890 74bf 19c3 de3f
00000360: 7daf a43e 07ce f73e 8144 6dbd 3ffa a3bf
00000370: fd0b 3e3f d154 c7be b522 163e fe21 4a3f
00000380: 6b71 99bf 4f89 713e 5f55 bfba d7b3 5dbd
00000390: ebf9 8a3f b576 84bd b63d f73e c192 a0be
000003a0: 8e51 c2be b682 a4be 14b5 533e d471 633f
000003b0: 98c1 34be d393 2a3f 71f2 0e40 8626 cebe
000003c0: 5361 183e c880 1a3d 87ff 0dbf a59a 633d
000003d0: 8020 7e3e 654f 8d3e 1a55 6dbf 713c 21bf
000003e0: 3923 9b3d 6fae c13e e778 953d 1196 2c3f
000003f0: 1dca acbe ad21 7e3f f31a 883f 4228 4f3f

fc2.bias f4 [7]
0.46861055 0.9636603 0.3823895 0.4580943 0.4307941 0.6331709 0.82104987
00000000: b9ed ef3e 71b2 763f 8ec8 c33e 568b ea3e
00000010: 0b91 dc3e 7d17 223f 5330 523f
